model/model.pth (torch, 17609 bytes, 4 tensors)

linear1.weight f4 [256, 11]
0.2989064 -0.18413769 0.08717266 0.17243935 -0.023014128 0.00076423574 0.30965573 0.17158154
-0.09665528 -0.15286192 -0.25868577 0.0580132 0.12820096 -0.29181427 -0.21446607 0.06280484
0.26734304 -0.29473993 -0.28920943 0.095261976 0.25328267 -0.060365386 -0.008558017 0.1982664
0.20707701 -0.25878277 0.13062072 -0.07532986 -0.11456552 -0.05988279 -0.23223439 -0.09723877
0.11667994 0.04475051 -0.08927432 -0.037180603 0.12848246 -0.119748116 -0.12697503 0.08284426
-0.06433077 -0.19304144 -0.022720665 -0.050740898 -0.11115773 -0.22194691 -0.15950388 0.029078873
0.24453655 -0.3389036 -0.16764429 0.20986633 -0.04227987 0.2880509 -0.2561018 -0.2141508
-0.13180916 0.18056835 0.11193607 -0.15252657 0.10638384 -0.13987035 0.053043112 -0.3439813
0.18163969 -0.14099999 0.025521208 -0.18287496 0.13860506 0.020434218 0.19495185 0.18323883
0.104837276 0.23101014 0.2559136 0.1459776 0.16820885 0.109797396 -0.17073776 -0.2085656
-0.24092823 0.20862243 -0.039592367 -0.26517758 0.11046525 0.25011602 -0.11179282 -0.15490891
-0.18304017 0.38353717 -0.11209711 0.23640709 -0.10943587 -0.07302292 0.19263946 0.2616916
0.05377458 0.05473666 -0.13191478 -0.065914705 -0.08234075 -0.0014979541 -0.23442361 -0.17937881
0.08809316 0.2252832 -0.19742666 0.014796138 -0.2113967 -0.21641105 0.054810315 -0.24604127
0.057466198 -0.10436237 -0.2764765 0.001025099 -0.076419964 -0.24145916 -0.23533365 -0.02022478
0.27708605 0.11739453 0.19814745 -0.26876637 -0.18151598 0.006006976 0.12939018 0.3016948
-0.009786524 0.1405907 0.09343182 0.3123035 -0.17770904 0.4231921 0.056118082 0.13164708
-0.0010532995 0.23846142 0.19785821 -0.12218148 -0.19710682 0.25665504 0.1533589 -0.093092635
-0.13575366 -0.07693003 0.05280326 0.24799378 -0.17618267 -0.20877299 -0.108011045 0.015722131
0.10094996 -0.26480296 -0.07495351 0.16373256 -0.24582905 0.14273712 -0.23403949 0.09802844
-0.03887096 0.12608205 0.14955173 -0.10021133 0.00086148625 0.20713137 -0.085805185 -0.18022212
-0.11963622 -0.19553015 0.16692787 -0.106955305 0.06943944 -0.12260726 0.03174759 -0.24049841
-0.28813812 -0.08032226 -0.27128038 0.075573325 -0.29677036 0.17780675 -0.26398924 0.151231
0.17302114 -0.1104644 0.021024471 0.1985289 -0.08674033 -0.032876965 -0.1366412 -0.32506576
-0.025167469 -0.036729034 0.14099516 0.23721716 0.0070736036 -0.11940334 -0.03704349 0.22973964
-0.15551184 0.14838552 0.12960598 0.0682382 0.23736441 -0.287743 0.09056023 0.11989233
0.18479751 -0.019917786 0.013211423 -0.047365718 0.21744296 -0.20743722 0.24801467 0.05835187
0.04867392 0.28954557 -0.22132556 0.07965558 0.078038104 -0.372784 0.2457516 -0.24359699
0.20296028 -0.30661651 -0.045976322 0.14305307 0.12876448 0.16960993 0.057384804 -0.21737415
0.19687346 0.21199197 -0.16926761 -0.29457495 -0.05827429 -0.26964992 -0.13711108 -0.1254525
0.1924592 0.012057566 0.20156622 -0.39174655 0.012773629 0.10045022 -0.0010079292 -0.33278596
0.050981753 0.21251558 0.1100312 0.2656336 -0.220254 0.2646234 -0.2648383 -0.2602524
00000000: 420a 993e 978e 3cbe 9487 b23d f193 303e
00000010: 2088 bcbc fe56 483a 328b 9e3e 12b3 2f3e
00000020: 34f3 c5bd d687 1cbe 7672 84be 409f 6d3d
00000030: 1d47 033e ae68 95be fe9c 5bbe d39f 803d
00000040: 30e1 883e 27e8 96be 4213 94be b618 c33d
00000050: 44ae 813e b241 77bd ed36 0cbc 5906 4b3e
00000060: ff0b 543e 2d7f 84be 70c1 053e 8b46 9abd
00000070: 54a1 eabd a847 75bd dace 6dbe 1f25 c7bd
00000080: e4f5 ee3d 504c 373d 74d5 b6bd b04a 18bd
00000090: e890 033e 803e f5bd be05 02be 40aa a93d
000000a0: dabf 83bd a8ac 45be b020 babc b0d5 4fbd
000000b0: aaa6 e3bd 0d46 63be fc54 23be d136 ee3c
000000c0: ca67 7a3e c684 adbe f2aa 2bbe 33e7 563e
000000d0: a82d 2dbd 687b 933e c61f 83be 594a 5bbe
000000e0: fbf8 06be e9e6 383e bd3e e53d ed2f 1cbe
000000f0: c5df d93d 2c3a 0fbe bc43 593d 511e b0be
00000100: c1ff 393e 4d62 10be da11 d13c 9343 3bbe
00000110: 7cee 0d3e a965 a73c 75a1 473e f6a2 3b3e
00000120: edb4 d63d ec8d 6c3e 1b07 833e 277b 153e
00000130: f13e 2c3e 75dd e03d e1d5 2ebe 3892 55be
00000140: e4b5 76be 1ea1 553e 9b2b 22bd 5bc5 87be
00000150: 9b3b e23d 350f 803e a2f3 e4bd 71a0 1ebe
00000160: e26e 3bbe fc5e c43e 2b93 e5bd b314 723e
00000170: ea1f e0bd 0a8d 95bd 4743 453e 71fc 853e
00000180: bc42 5c3d 8c33 603d ab14 07be 4afe 86bd
00000190: 44a2 a8bd 0057 c4ba be0c 70be 14af 37be
000001a0: 306a b43d a4b0 663e 372a 4abe 806b 723c
000001b0: 6078 58be dc9a 5dbe c880 603d 3ef2 7bbe
000001c0: ad61 6b3d f0bb d5bd 548e 8dbe 9d5c 863a
000001d0: 1282 9cbd 1241 77be 4efb 70be 70ae a5bc
000001e0: 39de 8d3e 8b6c f03d 2ae7 4a3e bf9b 89be
000001f0: 53df 39be 2bd6 c43b dc7e 043e be77 9a3e
00000200: a857 20bc 02f7 0f3e 2f59 bf3d 3fe6 9f3e
00000210: 5cf9 35be a3ac d83e 13dc 653d 7ece 063e
00000220: de0e 8aba 3b2f 743e 589b 4a3e 493a fabd
00000230: 5fd6 49be 4a68 833e 1e0a 1d3e 5aa7 bebd
00000240: 0203 0bbe 7e8d 9dbd 3b48 583d 15f2 7d3e
00000250: 3b69 34be 96c8 55be e534 ddbd b3cb 803c
00000260: dabe ce3d 4194 87be 3a81 99bd 82a9 273e
00000270: 9cba 7bbe ae29 123e 0ca8 6fbe 22c3 c83d
00000280: 2837 1fbd a71b 013e 1724 193e 993b cdbd
00000290: 5dd5 613a 3f1a 543e a1ba afbd 268c 38be
000002a0: d603 f5bd 0e39 48be 24ef 2a3e 620b dbbd
000002b0: 4436 8e3d 8419 fbbd c309 023d 3745 76be
000002c0: d786 93be ff7f a4bd 43e5 8abe 30c6 9a3d
000002d0: 49f2 97be f912 363e 9929 87be 4ddc 1a3e
000002e0: 742c 313e 293b e2bd 833b ac3c 294b 4b3e
000002f0: eaa4 b1bd ffa9 06bd aceb 0bbe 056f a6be
00000300: 022c cebc 2f71 16bd 0961 103e 0ee9 723e
00000310: b0c9 e73b bd89 f4bd eaba 17bd de40 6b3e
00000320: 7f3e 1fbe 60f2 173e 6eb7 043e 78c0 8b3d
00000330: a80f 733e 0d53 93be a477 b93d 1c8a f53d
00000340: 8f3b 3d3e a02a a3bc b974 583c 8e02 42bd
00000350: 5ea9 5e3e 6c6a 54be 8ff7 7d3e 5f02 6f3d
00000360: 4e5e 473d 513f 943e 2ba3 62be 7722 a33d
00000370: 71d2 9f3d 8bdd bebe 4fa6 7b3e 7d71 79be
00000380: d2d4 4f3e d7fc 9cbe ab51 3cbd 817c 123e
00000390: d6da 033e 3aae 2d3e 540c 6b3d 5497 5ebe
000003a0: 3299 493e 6c14 593e 7d54 2dbe 87d2 96be
000003b0: 06b1 6ebd 8e0f 8abe d966 0cbe 9f76 00be
000003c0: 0614 453e 198d 453c 6067 4e3e 0193 c8be
000003d0: 7c48 513c d8b8 cd3d 7e1c 84ba ec62 aabe
000003e0: 3ed2 503d af9d 593e 0a58 e13d 2101 883e
000003f0: 448a 61be b87c 873e e398 87be cd3f 85be

linear1.bias f4 [256]
0.081834085 0.06319765 0.094007924 -0.22825892 0.015266164 0.24555685 -0.02197706 0.12505604
0.2691661 -0.23218437 -0.14833456 0.09506337 0.044479646 0.17449011 -0.2048742 0.056199215
-0.16836827 -0.10032595 0.24951607 -0.15467143 0.021391075 0.16712384 0.24947105 0.023351721
0.11065877 0.28116515 0.01977558 -0.2084387 -0.08726655 -0.17547897 -0.09629692 0.17722519
0.06723071 -0.15948924 -0.21917516 -0.1636562 -0.116073504 -0.09508989 -0.01338083 -0.088198096
-0.051076654 -0.28386772 0.25698948 -0.3431349 -0.12157768 -0.2509935 0.07119967 -0.027393172
-0.014870038 0.051957715 0.2209537 -0.04590187 -0.08077702 0.2719515 0.3076337 -0.034875482
-0.11478369 0.12379779 0.02569136 -0.24528264 0.05599719 0.28509778 0.14977457 0.17982604
-0.2519214 0.085873604 0.07335 -0.019784136 -0.023281617 -0.08105445 -0.2916045 -0.15320827
0.16135858 -0.11435179 0.026553657 -0.051268972 -0.3079856 0.041204084 -0.010039217 0.2836168
0.09129328 0.166624 0.1726637 -0.10632769 -0.03364718 0.23435314 -0.3615492 -0.043577913
-0.31535915 0.08118528 0.05891522 0.14231335 -0.26568785 -0.124580644 0.087685905 0.18887226
0.064495035 0.20102006 -0.06003424 0.09078451 0.12536977 -0.2611693 -0.30882865 -0.17097883
-0.28112847 -0.053078573 0.1118955 0.3894711 0.05326026 0.20298629 -0.12382515 -0.24487036
-0.28989208 0.09350107 0.27525294 -0.23075697 0.022445086 -0.0110138 -0.0910954 -0.01825676
-0.09612399 -0.13741949 0.044175375 0.13910304 -0.31770554 -0.1551953 -0.19357648 -0.14939633
0.17889646 0.25861496 -0.23009805 0.2586214 -0.075712726 -0.2426447 0.20366412 -0.15213698
0.030956237 0.3050493 -0.13297242 -0.12120147 -0.19644883 0.12384918 -0.14821239 -0.22836313
0.12813333 -0.15116937 0.12053611 0.13404441 -0.010793128 0.24260892 -0.14562814 0.27301326
-0.008898232 -0.113027155 0.08837089 0.07034557 0.08071022 0.09536315 -0.20990041 0.101938024
0.017956862 0.045642033 -0.19285117 -0.2916452 -0.07136471 -0.14203168 -0.1531194 0.16272715
0.17187124 -0.14522886 0.08470838 0.1078105 0.23811834 -0.20112461 0.20576197 -0.29408887
0.2245341 -0.10499873 -0.1165098 -0.26148152 -0.24944453 0.04341857 -0.24684061 -0.06993349
-0.3034649 -0.02385745 0.12057732 0.09841031 -0.18256375 0.0011051879 -0.24727662 0.22452702
-0.27077416 0.2396157 -0.005104696 0.24508673 -0.1571494 -0.16717586 -0.09228417 0.26407674
0.16826014 0.2109973 -0.032056563 0.27513486 0.30969724 -0.15052621 -0.2233911 -0.24198762
-0.25650766 -0.045590617 0.086772606 0.16135728 0.03899395 0.027937086 -0.20171204 -0.2158111
-0.07905371 -0.26373717 -0.08566757 -0.24890962 0.1505582 -0.2743857 0.13685599 -0.2961181
0.10812939 -0.17348346 0.25976977 0.11030733 -0.067271374 -0.048432652 0.13997193 -0.10146236
0.10893954 0.13078609 -0.18893287 -0.29329324 -0.27789885 -0.24181944 0.045295324 0.122777276
-0.16237053 0.17955688 0.19736408 -0.20913737 -0.12365554 0.23589088 -0.10439954 0.20154354
-0.23979162 -0.33024687 0.13542454 -0.13794643 0.0027446186 -0.3083877 0.15165117 -0.2281333
00000000: a198 a73d c56d 813d 3a87 c03d b5bc 69be
00000010: ef1e 7a3c 4173 7b3e 3c09 b4bc b10e 003e
00000020: 24d0 893e bdc1 6dbe 04e5 17be 96b0 c23d
00000030: 4a30 363d 89ad 323e 8bca 51be 2631 663d
00000040: bb68 2cbe b177 cdbd 2481 7f3e 3062 1ebe
00000050: 563c af3c 8322 2b3e 5775 7f3e 1c4c bf3c
00000060: 11a1 e23d e1f4 8f3e 6600 a23c f470 55be
00000070: ceb8 b2bd c2b0 33be 5237 c5bd 857a 353e
00000080: 41b0 893d 2651 23be 746f 60be 7e95 27be
00000090: f2b7 edbd 7dbe c2bd 453b 5bbc 34a1 b4bd
000000a0: c135 51bd 1c57 91be 2094 833e 61af afbe
000000b0: b8fd f8bd 3882 80be 22d1 913d a567 e0bc
000000c0: 76a1 73bc 9dd1 543d b041 623e 9903 3cbd
000000d0: 6c6e a5bd 3a3d 8b3e 2a82 9d3e 98d9 0ebd
000000e0: b613 ebbd b289 fd3d b076 d23c 5f2b 7bbe
000000f0: 4f5d 653d 56f8 913e 815e 193e 5124 383e
00000100: d7fb 80be 80de af3d 8638 963d 5712 a2bc
00000110: 17b9 bebc e0ff a5bd 2f4d 95be a1e2 1cbe
00000120: 2f3b 253e 4531 eabd 0e87 d93c 6aff 51bd
00000130: 4ab0 9dbe 9dc5 283d 877b 24bc 3936 913e
00000140: f9f7 ba3d 7b9f 2a3e c1ce 303e 55c2 d9bd
00000150: a0d1 09bd 45fa 6f3e fa1c b9be c17e 32bd
00000160: c176 a1be 7844 a63d 1651 713d 97ba 113e
00000170: 3d08 88be 2324 ffbd ab94 b33d bb67 413e
00000180: f915 843d 34d8 4d3e 77e6 75bd 3bed b93d
00000190: ef60 003e fcb7 85be ca1e 9ebe 1315 2fbe
000001a0: 12f0 8fbe eb68 59bd 7829 e53d c268 c73e
000001b0: 6e27 5a3d a3db 4f3e 0a98 fdbd 4cbf 7abe
000001c0: bc6c 94be 7d7d bf3d f4ed 8c3e 8e4b 6cbe
000001d0: c2de b73c 3a73 34bc 3a90 babd 338f 95bc
000001e0: a8dc c4bd b2b7 0cbe 3df1 343d 0771 0e3e
000001f0: 4daa a2be 84eb 1ebe ea38 46be 5afb 18be
00000200: a230 373e 2e69 843e d39e 6bbe 066a 843e
00000210: 460f 9bbd da77 78be 548d 503e ccc9 1bbe
00000220: ef97 fd3c 6c2f 9c3e ec29 08be 7a38 f8bd
00000230: e229 49be a4a4 fd3d fdc4 17be 06d8 69be
00000240: 6235 033e 25cc 1abe a3db f63d f042 093e
00000250: a9d5 30bc 796e 783e 8b1f 15be 65c8 8b3e
00000260: e4c9 11bc c87a e7bd ccfb b43d 5711 903d
00000270: 664b a53d c14d c33d 22f0 56be e2c4 d03d
00000280: 451a 933c 24f3 3a3d c77a 45be 8552 95be
00000290: a927 92bd c170 11be 55cb 1cbe f2a1 263e
000002a0: 04ff 2f3e e0b6 14be 967b ad3d c0cb dc3d
000002b0: 4bd5 733e 9cf3 4dbe 44b3 523e d192 96be
000002c0: 44ec 653e 9309 d7bd b19c eebd e8e0 85be
000002d0: 636e 7fbe acd7 313d c9c3 7cbe 4a39 8fbd
000002e0: c05f 9bbe b370 c3bc 3ef1 f63d 588b c93d
000002f0: fef1 3abe f4db 903a 1536 7dbe 69ea 653e
00000300: e9a2 8abe d15d 753e 4b45 a7bb 04f8 7a3e
00000310: c6eb 20be 2630 2bbe 7cff bcbd 1135 873e
00000320: 634c 2c3e ad0f 583e be4d 03bd 7ade 8c3e
00000330: a390 9e3e 8b23 1abe a3c0 64be 9acb 77be
00000340: f954 83be 3abd 3abd d6b5 b13d d83a 253e
00000350: 1fb8 1f3d 51dc e43c 9a8d 4ebe 96fd 5cbe
00000360: e9e6 a1bd 8f08 87be 7b72 afbd 2ae2 7ebe
00000370: ee2b 1a3e 487c 8cbe fa23 0c3e cb9c 97be
00000380: f172 dd3d a6a5 31be 8b00 853e cfe8 e13d
00000390: 93c5 89bd 5161 46bd cd54 0f3e 7fcb cfbd
000003a0: b21b df3d caec 053e 9e77 41be 882a 96be
000003b0: c248 8ebe 849f 77be 9787 393d a772 fb3d
000003c0: 7644 26be c2dd 373e cf19 4a3e 1b28 56be
000003d0: 1e3f fdbd 618d 713e 6dcf d5bd 6e61 4e3e
000003e0: ef8b 75be 1e16 a9be bbac 0a3e d441 0dbe
000003f0: 0fdf 333b fee4 9dbe 724a 1b3e c79b 69be

linear2.weight f4 [3, 256]
0.010304073 0.015265291 0.10168586 -0.012247279 -0.03393603 -0.014033244 -0.0011516252 -0.029129513
0.07249676 -0.0119418055 -0.031257592 0.10599377 0.11008469 0.024268746 -0.038656875 0.0011421284
-0.049166296 -0.06215727 0.1108946 -0.053331647 -0.07919027 -0.01826686 -0.07689217 -0.14142719
0.026263664 -0.04969339 0.047722742 -0.008632742 -0.04295056 -0.03704676 0.1098637 -0.05957769
-0.0076087685 -0.10027987 0.0012988197 0.0198263 -0.16380936 0.014547867 -0.0029128345 0.14053163
0.11074946 0.014180485 -0.065517955 0.012784861 0.030808054 0.012398539 0.062004484 -0.082537755
-0.0058845305 -0.15734187 0.09104386 -0.06351857 0.110582404 0.07202094 0.109148964 0.13137329
-0.011278067 0.08610737 -0.033781763 -0.0671055 0.007861096 -0.020359883 -0.100545 -0.029176705
0.07623137 0.026656477 -0.17271459 -0.095845655 -0.006059268 -0.006181621 0.008599858 0.103521414
-0.04451063 -0.036923576 0.12708795 -0.050739814 0.040552113 0.10220689 -0.019363837 -0.027039431
0.08625448 -0.031339996 0.05774581 -0.0016103298 0.058467276 -0.02790799 0.012584493 -0.008970932
-0.045880586 0.037706047 0.08149184 -0.0376758 -0.07127643 0.09594264 -0.0039513223 0.010087316
0.093919076 0.039956346 -0.10621713 0.11177869 -0.0494241 -0.084475264 0.03293027 0.023890167
-0.02992151 -0.096016996 -0.030099513 -0.17573999 -0.056052517 -0.09632347 0.08496349 -0.021536417
0.028699085 -0.0033481235 -0.17032832 0.087527595 0.05130264 -0.05153739 -0.045523793 0.040318828
0.08879044 -0.07702873 0.038310405 0.10534432 0.021315398 0.09186672 -0.027443238 0.018389748
0.00043394227 -0.0628335 -0.15257916 -0.06280563 -0.08529249 0.020081831 0.049737047 -0.043312013
-0.057401568 0.10434916 0.009829254 0.108884096 0.045314766 0.083357975 0.0009453787 0.004756061
0.027649973 -0.0038269386 -0.030167978 0.10540335 0.0019502206 -0.10652736 -0.09512607 0.11774216
-0.020730814 0.048570007 -0.116381705 -0.1479019 0.029824097 -0.041585628 -0.011151716 -0.0037056466
-0.061931908 0.030886848 0.045869928 -0.024614364 -0.07845457 0.01110157 -0.1567613 0.10178092
-0.061048422 -0.009764781 0.0782791 -0.020906894 -0.000696157 0.060305074 -0.048312176 -0.072708026
0.055347107 0.08039415 -0.049933825 0.080981925 0.002875319 0.026013058 0.039411455 0.029054401
-0.07063176 -0.17769763 0.072274454 0.05170979 -0.07640225 0.06305 0.0586209 0.10045841
-0.019634694 -0.019131767 -0.0002543124 -0.032342736 0.03831558 -0.030840885 0.00027022325 -0.13770115
0.03312807 -0.065305755 0.022999331 -0.0515851 0.081794076 -0.042158186 0.040800173 0.08008833
0.0030376287 0.15397267 0.041683443 0.020064106 0.08633487 0.010956359 0.0591242 -0.0009438491
0.007932827 0.038162295 -0.21001299 -0.014904596 -0.024817271 0.030040167 -0.067163095 0.030861907
0.099707164 -0.05246425 0.016179401 -0.02207941 -0.02610712 -0.08633163 -0.058458425 -0.0405566
0.030368533 -0.0091460105 0.0028924874 0.026974559 0.011534546 -0.039923705 -0.12755942 -0.028502757
-0.0008468518 -0.08020796 -0.0055860467 0.056704085 0.057557944 -0.042852227 -0.015165769 0.09890171
0.053848833 -0.025861455 -0.09257449 0.0871187 0.11245533 -0.020368753 0.037042346 0.014766196
00000000: 6ad2 283c 451b 7a3c ad40 d03d d0a8 48bc
00000010: 8200 0bbd b1eb 65bc 21f2 96ba 04a1 eebc
00000020: 2e79 943d 90a7 43bc f607 00bd 4313 d93d
00000030: 1574 e13d 40cf c63c ac56 1ebd 78b3 953a
00000040: 9962 49bd 9f98 7ebd b51c e33d 4972 5abd
00000050: 822e a2bd 62a4 95bc a479 9dbd 4ad2 10be
00000060: e526 d73c 4c8b 4bbd ec78 433d 5870 0dbc
00000070: edec 2fbd 58be 17bd 3800 e13d bc07 74bd
00000080: fa52 f9bb 885f cdbd 283d aa3a c46a a23c
00000090: a4bd 27be 2d5a 6e3c 41e5 3ebb 86e7 0f3e
000000a0: 9dd0 e23d 4455 683c 472e 86bd 9877 513c
000000b0: 2c61 fc3c 3e23 4b3c 6af8 7d3d 8e09 a9bd
000000c0: 05d3 c0bb 3a1e 21be 3475 ba3d 0616 82bd
000000d0: 0779 e23d b77f 933d 7e89 df3d b886 063e
000000e0: a4c7 38bc 1059 b03d bf5e 0abd 9c6e 89bd
000000f0: d4cb 003c c5c9 a6bc 89ea cdbd fc03 efbc
00000100: 311f 9c3d af5e da3c 18dc 30be ba4a c4bd
00000110: d38c c6bb 328f cabb 6be6 0c3c 0903 d43d
00000120: c750 36bd 2d3d 17bd 5823 023e 8dd4 4fbd
00000130: f919 263d d951 d13d e9a0 9ebc cc81 ddbc
00000140: 30a6 b03d 5e5e 00bd df86 6c3d b411 d3ba
00000150: 627b 6f3d 4c9f e4bc 302f 4e3c d1fa 12bc
00000160: 48ed 3bbd a871 1a3d 32e5 a63d f151 1abd
00000170: 60f9 91bd 937d c43d 187a 81bb 4545 253c
00000180: a558 c03d 44a9 233d 5e88 d9bd 3aec e43d
00000190: ed70 4abd 5e01 adbd e4e1 063d 50b5 c33c
000001a0: f41d f5bc 8fa4 c4bd 4193 f6bc 2ff5 33be
000001b0: 5397 65bd 3d45 c5bd 5701 ae3d 246d b0bc
000001c0: 581a eb3c 316c 5bbb 8c6a 2ebe ab41 b33d
000001d0: b822 523d df18 53bd 2877 3abd 5b25 253d
000001e0: c3d7 b53d 3dc1 9dbd 5feb 1c3d c3be d73d
000001f0: a19d ae3c 9e24 bc3d a4d0 e0bc 19a6 963c
00000200: bf82 e339 daae 80bd b63d 1cbe 3da0 80bd
00000210: d4ad aebd a782 a43c 13b9 4b3d f067 31bd
00000220: e81d 6bbd 03b5 d53d e10a 213c a0fe de3d
00000230: fa9b 393d 96b7 aa3d 4ad3 773a bbd8 9b3b
00000240: 3282 e23c 60cd 7abb d622 f7bc b6dd d73d
00000250: 8b9e ff3a 042b dabd 75d1 c2bd cd22 f13d
00000260: abd3 a9bc 58f1 463d 8859 eebd 9873 17be
00000270: aa51 f43c b155 2abd b0b5 36bc 6fda 72bb
00000280: 50ac 7dbd 6a06 fd3c 1be2 3b3d 10a4 c9bc
00000290: caac a0bd 5ce3 353c 0986 20be 8472 d03d
000002a0: e90d 7abd 76fc 1fbc cb50 a03d ef44 abbc
000002b0: 4e7e 36ba 7402 773d fde2 45bd f2e7 94bd
000002c0: a6b3 623d b0a5 a43d 6987 4cbd dad9 a53d
000002d0: d96f 3c3b 5619 d53c e86d 213d 7f03 ee3c
000002e0: 62a7 90bd 5ef6 35be a104 943d a5cd 533d
000002f0: c878 9cbd 5c20 813d 781c 703d 24bd cd3d
00000300: f0d8 a0bc 39ba 9cbc 3c55 85b9 d179 04bd
00000310: ccf0 1c3d 06a6 fcbc c0ac 8d39 8801 0dbe
00000320: 4db1 073d 06bf 85bd 1869 bc3c e64a 53bd
00000330: a783 a73d 10ae 2cbd 151e 273d 5a05 a43d
00000340: f412 473b 03ab 1d3e 42bc 2a3d 7b5d a43c
00000350: 56d0 b03d 4d82 333c 382c 723d a46c 77ba
00000360: b0f8 013c 1150 1c3d a50d 57be 6832 74bc
00000370: 974d cbbc cc16 f63c ce8c 89bd 1cd2 fc3c
00000380: 4533 cc3d c1e4 56bd aa8a 843c e1df b4bc
00000390: 99de d5bc a3ce b0bd 1a72 6fbd ad1e 26bd
000003a0: 6ec7 f83c 26d9 15bc e38f 3d3b c0f9 dc3c
000003b0: 64fb 3c3c 0a87 23bd f09e 02be 9d7e e9bc
000003c0: 43ff 5dba 1244 a4bd 280b b7bb 8b42 683d
000003d0: e1c1 6b3d d185 2fbd d879 78bc fb8c ca3d
000003e0: 9890 5c3d 67db d3bc b297 bdbd 4a6b b23d
000003f0: fb4e e63d 5fdc a6bc b7b9 173d eaed 713c

linear2.bias f4 [3]
-0.020196442 -0.044464324 -0.06616225
00000000: 0273 a5bc 3920 36bd 1380 87bd
