model/model.pth (torch, 17609 bytes, 4 tensors)

linear1.weight f4 [256, 11]
000000 75 08 d9 3d b4 2e ca bd b3 0e e6 3e 99 c6 a4 be
       0.10597316 -0.09872189 0.4493309 -0.32182768
000010 66 13 95 bd 0a d6 0f 3d ab a3 cb bd 09 2a a8 3e
       -0.072790906 0.035116233 -0.099433266 0.3284457
000020 39 43 81 3e 5f 4c 8c 3e 6a dc 8f 3e 58 51 9c 3d
       0.252466 0.27402017 0.2809785 0.076327026
000030 25 53 ee 3d af db bc be 2b 14 4c 3e 0d 24 b9 bd
       0.11636952 -0.36886355 0.19929568 -0.09040079
000040 30 d8 01 be ce 9a 49 be b8 26 56 3e e9 77 4a 3e
       -0.12680125 -0.1968796 0.20913208 0.19772305
000050 ef 1a 9a 3d ac 28 e1 bc 2b 08 bf 3d 95 1d 20 be
       0.075246684 -0.027485214 0.0932773 -0.15636285
000060 45 45 8f be 94 fa 67 be d4 0d ed bd 41 bc b8 bd
       -0.27982536 -0.22654182 -0.11574903 -0.090202816
000070 1c bc 8d be ea 7b 13 3c 52 bd 88 be a8 98 77 be
       -0.2768258 0.009001711 -0.2670694 -0.24179327
000080 c6 e8 82 be 57 c2 39 be fd ac 38 bf d8 97 ad 3d
       -0.25568217 -0.18140541 -0.7213896 0.084762275
000090 55 7e 32 be 24 57 0b bd ae bb 63 be 5a 53 2b 3c
       -0.17431004 -0.03401865 -0.22239563 0.010456884
0000a0 36 38 80 be 0f 1d c3 bd 0f e8 fb 3d 9a 56 91 3d
       -0.25042886 -0.09527027 0.12300121 0.07096596
0000b0 8f c1 b8 bd 14 ad d7 bd 4d 0f 41 3e 28 85 8c be
       -0.09021293 -0.10531059 0.18853493 -0.2744534
0000c0 29 5a 19 be ee 6d 36 be ba 1e 81 bd e4 13 ba bd
       -0.149758 -0.17815372 -0.06304689 -0.09085825
0000d0 19 f6 56 bd 83 e1 4d bd d7 c7 50 be aa a4 90 be
       -0.05248079 -0.050263893 -0.20388733 -0.2825063
0000e0 36 6a d9 be e6 f1 58 3e 74 d4 58 be a3 0b cb be
       -0.42463845 0.21186027 -0.21174794 -0.39657316
0000f0 ad 7c 85 3e 40 89 cf 3e dd cc fb 3e 48 f8 ec bd
       0.26071683 0.405344 0.49179736 -0.115707934
000100 36 a7 42 bf 61 6d 41 bf 02 b3 1f 3e 3e a6 f1 bd
       -0.76036394 -0.75557524 0.1559563 -0.11799286
000110 eb b2 93 3c 81 1f c1 be 98 08 cf bd cf c8 a2 3e
       0.01802965 -0.37719348 -0.10109061 0.3179383
000120 1d 01 da 3e f8 7f ed be 42 56 19 3f 90 6b cc be
       0.42578974 -0.46386695 0.59897244 -0.39925814
000130 b3 fa 07 3e f6 53 42 3e 75 da 16 be c0 b3 0e be
       0.13279228 0.18977341 -0.14731772 -0.13935757
000140 ed b1 98 be 4c 97 ac bc 47 4b 9c bd 79 21 a8 bd
       -0.29823247 -0.021068238 -0.076315455 -0.082095094
000150 24 9f 84 3d 82 80 a5 be fc ef bc be 2e 5d a7 ba
       0.06475666 -0.32324606 -0.36901844 -0.0012768859
000160 69 ab 90 bd eb 42 26 3e e4 40 69 3d 4c 8d d1 be
       -0.07063944 0.16236465 0.05694665 -0.40928113
000170 19 5e e9 bc ac de 0f be 66 18 9d be ab 32 92 bc
       -0.028487252 -0.14049786 -0.30682677 -0.017846426
000180 4b 38 09 be b5 bd 16 3e 5b c2 8a 3a 4d 1d 09 3d
       -0.1340038 0.14720805 0.0010586487 0.03347521
000190 8b 43 44 be ab 54 51 bd c7 91 21 bf 3c 3c 35 bf
       -0.1916639 -0.051106136 -0.63113064 -0.70795035
0001a0 00 cb c8 3e 32 5d 5d 3d c6 c6 0c 3f dd 9f 19 bf
       0.39217377 0.054043956 0.54990804 -0.60009557
0001b0 d9 58 1a bf b6 20 47 be cb 22 cb bd 88 54 50 be
       -0.6029182 -0.19446072 -0.099187456 -0.20344746
0001c0 ad cf b9 3d ad e0 87 be cc ec 5a be cb 68 90 be
       0.09072814 -0.26538602 -0.21379393 -0.2820495
0001d0 21 9b 54 3e 38 b3 85 be 2a 4b d3 3c 4c 94 77 3d
       0.20762302 -0.26113296 0.025792677 0.06044416
0001e0 a8 12 0c be e6 30 fc bd a4 ba 28 bf b8 3a 82 be
       -0.13678992 -0.12314014 -0.6590979 -0.25435424
0001f0 ea f2 77 be 31 70 7f be c1 85 27 3e 60 59 99 be
       -0.24213758 -0.24945141 0.16359617 -0.29951
000200 0c cd 55 be 25 74 fd 3e 33 d4 47 bc 1b e5 95 3d
       -0.20879 0.49502674 -0.012196588 0.07319089
000210 fb 00 fb 3c 5e aa 83 3e a3 11 ab 3e 8d ad d8 3d
       0.030640116 0.25715917 0.33411893 0.10579977
000220 ea 26 b3 be ad 92 51 bf eb 1d ab 3e a6 a7 04 3f
       -0.34990627 -0.81864434 0.33421263 0.5181831
000230 27 ef dc be 70 3f 77 be da b0 4e 3d bd 32 19 bc
       -0.4315121 -0.24145293 0.050461628 -0.009350476
000240 fe a2 2d be 0f f8 c2 bd 39 07 50 be fb f0 e0 be
       -0.16956708 -0.0951997 -0.20315255 -0.43933854
000250 8b 79 ef 3e 58 ec 33 3e c4 15 02 bf 73 df 4e 3e
       0.46772417 0.17570627 -0.5081446 0.20202427
000260 d5 92 83 be af f5 9c 3e cc a9 3c be 79 39 32 3e
       -0.2569796 0.30656192 -0.18424147 0.17404737
000270 3f 09 0d be b7 92 f4 be a8 22 b3 bd 2f 49 8f 3e
       -0.13773058 -0.47768185 -0.087468445 0.27985522
000280 a7 30 02 be 69 7d 01 bf 2a c2 05 3f 78 2f ff bb
       -0.12713872 -0.50581986 0.52249396 -0.007787641
000290 a5 58 1d 3d 6d 75 ce be 3a 81 e6 be 1a 0b e5 bd
       0.038414616 -0.40323964 -0.45020467 -0.11183758
0002a0 2c be 90 be d9 41 f5 3d b4 5c 69 3d 7e 42 13 be
       -0.2827009 0.1197545 0.056973174 -0.14380834
0002b0 07 e2 c5 be 42 04 0f 3e 99 17 37 be 86 6e 95 be
       -0.38649008 0.13966468 -0.17880096 -0.29185885
0002c0 07 b5 e0 3d ea 95 86 bf f5 6c e8 be e7 87 21 be
       0.10972028 -1.05145 -0.45395628 -0.15774499
0002d0 b3 e8 13 bd 31 00 3e 3e 5a 0b 05 bf 44 62 bb be
       -0.03611059 0.1855476 -0.51970446 -0.36598408
0002e0 7a 92 ea 3e 83 34 7d 3e e0 46 95 be b0 a9 c2 3d
       0.45814878 0.24727063 -0.29155636 0.095050216
0002f0 b9 4c 7e 3d 9f bd 01 3f 78 7d 71 3d a8 ea 32 3e
       0.062084887 0.50679964 0.058957547 0.17472327
000300 55 a8 d5 be bf 3b d2 bd a2 63 31 3f 70 7d 5e be
       -0.4172999 -0.10265302 0.6929265 -0.21727538
000310 1a 55 91 3e cb cf 35 be d8 95 e2 3e fd 32 53 3e
       0.2838524 -0.17755048 0.44254947 0.20624919
000320 9e fe 17 3e 4d aa ad 3e c4 dd b5 3e 3c ff 0c be
       0.14843222 0.33918992 0.35520756 -0.13769239
000330 f9 8c 3b be 1b 7b a6 3e aa 4b 0c be f7 ae d8 bc
       -0.18315496 0.32515797 -0.13700739 -0.026450617
000340 05 b8 2d bf de d5 50 3e 5b bd de 3d 73 39 a6 3e
       -0.67858917 0.20394084 0.108759604 0.32465705
000350 64 b2 53 be 44 46 76 be e6 17 a5 be b7 17 0b be
       -0.2067352 -0.24050242 -0.32244796 -0.13583265
000360 cb de 88 3e a3 3b ed 3d 79 a5 83 bd 63 5c d3 3d
       0.26732478 0.115836404 -0.06428046 0.10320356
000370 36 f3 d3 be 67 51 5b be e1 3c bd 3e f2 fd 6e 3e
       -0.41396493 -0.21417771 0.3696051 0.2333906
000380 5b 28 e8 3e d9 a0 1a bf ca 3f 7b be 2b 02 32 bf
       0.4534329 -0.60401684 -0.24536052 -0.6953456
000390 48 4a 59 3d d6 d7 97 be 38 73 23 bf 29 1c 29 bf
       0.053049356 -0.29656857 -0.63847685 -0.66058594
0003a0 25 a9 a8 3d 62 78 f4 3e 09 c1 15 3e dd 36 ad bd
       0.08235387 0.47748095 0.14624418 -0.0845773
0003b0 f5 67 7b 3e f0 40 1c bf ca 11 2a 3f 02 29 17 3f
       0.24551375 -0.61036587 0.66433394 0.5904695
0003c0 b3 21 2e be f2 b1 b5 be 1a d6 4c be 1b 29 26 bf
       -0.17005043 -0.35487324 -0.20003548 -0.6490647
0003d0 b6 33 54 3e 49 83 49 be 35 31 85 3e 22 5e 51 be
       0.20722851 -0.19678988 0.26014104 -0.20446065
0003e0 3c 53 bd 3b 36 c4 12 3e 27 8e f9 bd af d0 aa 3d
       0.0057777446 0.14332661 -0.121853165 0.083405845
0003f0 6d 05 15 bd a4 87 bf 3d e2 f9 b1 3d 4f 42 42 3d
       -0.036382128 0.09352043 0.086902395 0.047426518

linear1.bias f4 [256]
000000 eb c1 ef be af 7c cf be 04 2a 7a bd de 93 22 bd
       -0.46827635 -0.40524814 -0.061075225 -0.0396918
000010 69 97 cd bc 27 f0 cf 3e 7b 34 87 be cd c5 96 be
       -0.025096612 0.4061291 -0.26407227 -0.29447785
000020 f4 45 5e be 5d 6e 97 3e e0 47 9b be 78 77 91 be
       -0.21706372 0.29576388 -0.30328274 -0.2841146
000030 4e c0 85 be e5 ad 28 3d 42 8f f9 bd ab aa 99 3c
       -0.2612328 0.041181464 -0.121855274 0.018758139
000040 7d ad ab 3d 59 ee ea be c6 d4 94 be 31 b1 c5 be
       0.083827 -0.4588497 -0.29068583 -0.3861175
000050 a3 e0 ac 3c 4c a0 c8 3d 20 ad 25 bf 7e 6c dd bc
       0.021103209 0.09796199 -0.6471729 -0.027029272
000060 ed 19 87 3e e7 89 21 be e9 bb b1 be f1 69 03 bf
       0.26386967 -0.15775262 -0.34713677 -0.5133353
000070 d2 80 e1 bd 98 77 64 be 1f 7b e3 3d 4a 39 2b bd
       -0.11010899 -0.22311246 0.11107468 -0.041802682
000080 51 48 88 bc 80 9c e5 be 73 55 fc be 36 e6 43 be
       -0.016636046 -0.44845963 -0.49283943 -0.19130787
000090 13 c8 df bc 47 6a 9b 3e e8 28 89 be c2 b7 da bd
       -0.027317083 0.3035452 -0.26789021 -0.1067958
0000a0 88 fc b4 be 3b f6 2a 3e 5b b8 85 be 74 42 ac be
       -0.35348916 0.16695492 -0.26117215 -0.3364445
0000b0 ec 1e b1 bd e9 97 9a be 83 05 00 bf 4a 07 ae be
       -0.08648476 -0.30194023 -0.5000841 -0.33989936
0000c0 d2 44 14 be 7d 95 0a bf df 4b 62 be bc e6 b7 be
       -0.14479378 -0.5413435 -0.22099255 -0.35918224
0000d0 07 71 2a 3e 79 76 f8 bd 86 ba c0 be dd 9f 11 3e
       0.16644679 -0.12131972 -0.37642306 0.14221139
0000e0 d5 16 45 be 30 5a 08 bd 33 26 8b bd cc fe 4c be
       -0.19246991 -0.033289135 -0.06794395 -0.20019072
0000f0 a3 7a 0a be d1 e0 a4 3c 08 65 c6 be 77 f7 82 be
       -0.13523345 0.020126732 -0.38748956 -0.25579426
000100 0e 94 86 be ac 2e 24 be 27 43 c8 3d d9 5d 5c be
       -0.26284832 -0.16033429 0.09778433 -0.21520175
000110 be fa 88 bd 2f 12 c0 be 47 9e b4 be f5 71 ca be
       -0.0668845 -0.37513873 -0.35277006 -0.39540067
000120 88 37 f8 be a8 02 8a 3d b9 68 dc be 98 0c 03 bd
       -0.48479867 0.06738788 -0.43048647 -0.031994432
000130 7d d5 ec bd 0e 8f fe 3e e8 7e cc 3e 91 58 e3 3e
       -0.11564157 0.49718517 0.39940572 0.44403508
000140 6b 0c fb bc fe 9f 3a be 27 02 c2 3d 6e ca 76 3e
       -0.03064557 -0.18225095 0.09473067 0.24100658
000150 d4 a6 7c be d0 42 eb bd df 24 a3 be d3 da 93 be
       -0.24673015 -0.11487353 -0.31864068 -0.28877887
000160 cf 10 ed 3e 75 fc be be 6e 9d 44 3d 6d c5 fd be
       0.46301886 -0.37301984 0.0480017 -0.49564686
000170 69 9a c2 3e ee 30 67 be 8c b8 c5 3d 01 74 8f be
       0.3800843 -0.22577259 0.0965434 -0.2801819
000180 33 49 74 be 24 f6 42 be f5 cc 90 3e 54 0f 72 3e
       -0.23856048 -0.19039208 0.2828137 0.2363866
000190 52 52 0a ba b3 9c b0 be cc a2 92 bd 34 57 c8 3e
       -0.0005276549 -0.34494552 -0.07159957 0.3912903
0001a0 76 02 7b be dd c5 cc be 17 d6 87 be 0e 69 71 bd
       -0.24512658 -0.39994708 -0.26530525 -0.05893808
0001b0 f2 ac 59 be 10 20 5a bd 06 f5 ce bd 5b 58 83 bd
       -0.2125738 -0.053253233 -0.10105328 -0.06413337
0001c0 92 ff 19 bf 42 ee c3 be d0 c4 0c be 76 f1 45 3e
       -0.60155594 -0.38267714 -0.13746953 0.19330391
0001d0 a3 43 ab 3e a2 16 53 3d 59 47 40 be e3 a4 03 bf
       0.3345004 0.051535256 -0.18777217 -0.5142347
0001e0 86 9a a3 be ed d7 5d bd fa 39 06 be 49 1c 16 be
       -0.3195383 -0.054161 -0.13108054 -0.14659227
0001f0 8c 6f 88 3b a8 df 8c be 21 32 ff be 99 d8 8f bd
       0.004163688 -0.27514386 -0.49842933 -0.070237346
000200 2a 61 d4 be 05 23 e3 be 19 64 13 be 2d 8f 15 3d
       -0.4148038 -0.44362655 -0.14393653 0.036513496
000210 bd 6b cb be eb e3 df be da 79 b7 be d8 9e 8f 3d
       -0.39730635 -0.43728575 -0.35835153 0.07012719
000220 f7 15 e5 be 9b 57 57 bd cb 2b 8f bd 30 3c 19 bf
       -0.4474332 -0.05257378 -0.06990775 -0.59857464
000230 67 2d 86 be cd 2e db bd 88 26 5c be 8c 34 9d bd
       -0.26206514 -0.10702286 -0.21499074 -0.07676038
000240 5a d8 94 be 3b 11 fc bc f2 b6 cf be cb 52 9e 3d
       -0.29071313 -0.030769935 -0.40569264 0.07730635
000250 3f d3 36 be 68 1b ef be e8 e9 13 3e d1 a8 1e 3e
       -0.17854021 -0.46700597 0.14444697 0.15494086
000260 ac 7d b7 3e d6 14 ac be c2 91 a1 bd 0d fa 33 3f
       0.35838068 -0.33609647 -0.07889129 0.7030342
000270 b9 9c 5d be f5 47 b4 be e3 08 16 bf 4b 19 67 3e
       -0.21641816 -0.3521115 -0.5860731 0.22568242
000280 e0 53 ac be e0 34 b4 3d 97 38 27 bf 4e 30 14 be
       -0.33657742 0.087991476 -0.65320724 -0.14471552
000290 2b be 9f be bd bc 0c be 72 33 fc bd 63 f3 36 be
       -0.31199774 -0.13743873 -0.123145 -0.17866282
0002a0 eb 85 79 be 80 b3 5a be c5 49 c2 3e 33 c2 79 bc
       -0.24367492 -0.21357536 0.37946907 -0.015244055
0002b0 71 fc 65 be 93 9f 74 be f2 69 0b be bd 93 66 be
       -0.2245958 -0.23888998 -0.13614634 -0.22517295
0002c0 bc b6 05 bf 7f f2 c3 be e7 a0 f5 3c 36 69 15 3f
       -0.52231956 -0.38270947 0.02998395 0.58363664
0002d0 97 21 9d bc bb e1 24 be 70 53 fa 3d 1a 2d bf be
       -0.019181056 -0.16101734 0.12222946 -0.37339097
0002e0 34 0a 43 be 4c 88 6a be c7 b9 b7 be ed 78 98 3e
       -0.19046861 -0.22903556 -0.35883924 0.2977976
0002f0 70 93 a9 be b8 19 2f be 19 4c 94 be 39 17 46 bd
       -0.33120298 -0.17099655 -0.28964308 -0.04836199
000300 09 b3 01 3e 1c a3 c4 3c 18 d0 15 be 66 bf 83 3f
       0.12665953 0.024003558 -0.14630163 1.0292785
000310 c2 cc 32 3f 3a ba eb bd e0 3b d4 be 26 12 07 be
       0.69843686 -0.11510129 -0.4145193 -0.13190517
000320 f0 b3 da bd b4 7e 94 be 41 51 93 3e d7 c2 85 3c
       -0.106788516 -0.29002917 0.2877293 0.016328258
000330 d7 43 13 3e d4 82 c5 be f1 90 30 be 86 0b a5 bd
       0.14381348 -0.38576376 -0.17242791 -0.080588385
000340 89 27 bc 3c cd 9b d6 bb 94 9b 9c bd 8b 5f dd be
       0.02296807 -0.0065493346 -0.07646862 -0.43236956
000350 3c f0 8d be b0 05 8b be d6 37 af be 31 0e dd bd
       -0.27722347 -0.27152777 -0.34222287 -0.107937224
000360 ea a0 ac be 89 6b cd bd d2 f1 9d 3e 71 fb bd be
       -0.33716518 -0.10030276 0.30848557 -0.37105897
000370 ab 77 3c be ba 72 01 be f1 85 ac bd f4 85 8a 3f
       -0.18405025 -0.12641421 -0.08423985 1.0822129
000380 d6 fe b7 bd 59 52 d9 be 6a 28 b1 be 16 3e 5d be
       -0.08984153 -0.4244564 -0.34601146 -0.21605715
000390 5d 72 e5 bd 2f ce 39 be 30 9d 1e bd a4 bc c0 be
       -0.11203454 -0.18145059 -0.038724124 -0.3764392
0003a0 2d e1 81 3d 41 55 7e be 8f b8 9c be b0 35 21 3d
       0.06341777 -0.2483721 -0.30609557 0.03935784
0003b0 40 bc 41 3e da 1b 0c be e5 63 6a be 7f 23 dd 3d
       0.18919468 -0.136825 -0.22889669 0.10797786
0003c0 af 56 bb be d9 bb ae be 8a e0 81 bd a2 97 ff 3d
       -0.36589572 -0.3412769 -0.063416556 0.124800935
0003d0 92 08 81 be 37 28 6e be 18 fa 71 be 4b ce 61 be
       -0.2520185 -0.23257528 -0.2363056 -0.22051351
0003e0 df 5e 8f be f0 15 16 bc 56 64 a3 bc f5 76 fc bd
       -0.28002068 -0.009160504 -0.019945305 -0.12327377
0003f0 7e a6 ed 3c aa 30 ee be 97 80 c3 be df f7 78 bd
       0.029010054 -0.46521503 -0.38184044 -0.060783263

linear2.weight f4 [3, 256]
000000 7e fc 4f bd 81 ad f6 ba f9 77 ee 3c 8a 06 96 bc
       -0.050777905 -0.0018820019 0.029109942 -0.018313665
000010 d1 13 9e 3b bf 43 d9 3e ea 19 80 be c9 bb e9 bc
       0.0048241396 0.424345 -0.2501977 -0.028531926
000020 39 a8 6d bd 91 9b 65 3e 27 58 f8 3c 9d 92 ad bd
       -0.058021758 0.22422625 0.030315472 -0.0847523
000030 71 96 b3 be fd 0b cf bd 79 ef 0a bd 3d 7e 79 be
       -0.35075715 -0.101097085 -0.033919785 -0.24364562
000040 a9 83 f5 bd fd b4 5c be 76 d8 81 be dd 4d 3f 3d
       -0.11988003 -0.21553417 -0.2536046 0.046705116
000050 6e c8 63 3e 5d 05 ae 3e 43 bb a8 3c a9 ec 3d 3a
       0.22244427 0.33988467 0.020597106 0.0007245043
000060 eb b2 95 3e 4b dc f1 be 9e 19 26 be d0 6f 3d bd
       0.29238066 -0.47238383 -0.1622071 -0.04624921
000070 07 d0 e0 bc 8c ce 21 3d aa 7d 8b 3e e2 34 92 3e
       -0.027442945 0.03950362 0.27244312 0.2855597
000080 44 99 50 be b3 16 c5 bd 9a 35 32 be 40 03 08 bd
       -0.20370966 -0.0962347 -0.1740326 -0.033206224
000090 0c 40 03 be 6c 31 ee 3e 1c 4f e3 bc e1 3f e1 be
       -0.128174 0.4652208 -0.027747683 -0.43994048
0000a0 24 dc 3c 3c 93 be 40 bd 00 95 65 be 5c 06 92 be
       0.011527095 -0.047056746 -0.2242012 -0.28520477
0000b0 d7 b2 34 3d 4c 5f 80 bd 82 61 cf bd 5b a7 d2 bd
       0.044115867 -0.062681764 -0.1012602 -0.10285827
0000c0 c6 30 6e 3d 3f 8c e7 be 46 84 fa 3c e3 db d4 bc
       0.058151983 -0.45224187 0.030580651 -0.025983756
0000d0 2c 57 86 be 56 eb 84 be 64 0a a8 bd 91 8e f8 3e
       -0.26238382 -0.25960797 -0.08205107 0.4854627
0000e0 62 43 00 bf a3 a2 39 3c 02 e2 06 bd fc 08 48 bd
       -0.5010282 0.0113302795 -0.03293038 -0.048836693
0000f0 bf ef b3 bd bc 11 01 3f c8 b5 c5 bc 3e 72 3f bd
       -0.08785962 0.50417686 -0.024134532 -0.04673981
000100 49 9d d9 be 7d 43 a5 bb e2 32 f9 3c d7 c1 ca bb
       -0.42502812 -0.0050434456 0.03041977 -0.0061876583
000110 2e 66 b7 be 7e 81 90 bd 4b 2d 3e bd a1 f9 38 be
       -0.35820144 -0.07055949 -0.046429913 -0.18063976
000120 a5 35 d7 3e 06 f1 f3 bb 1a be 35 be 32 27 33 3e
       0.42033115 -0.0074445037 -0.17748299 0.1749542
000130 43 cf 9c bd 49 ee fe 3e 20 3c 98 3e a8 dc 82 3e
       -0.076567195 0.49791172 0.29733372 0.25558972
000140 ff 3f 9e 3e 61 97 63 bd 86 ab 95 bd e6 a0 0f 3f
       0.309082 -0.055564288 -0.07308106 0.56104887
000150 11 04 63 bd 8b 81 65 3d 65 3f 84 be cc 3b 42 bb
       -0.0554238 0.056031745 -0.25829616 -0.0029637692
000160 46 9e 58 3e 80 72 a7 be ee 47 0a 3f c7 62 5d be
       0.21154127 -0.32704544 0.54016006 -0.21619712
000170 25 d9 f3 3e 20 a0 5c bd 5b 1c 94 bb 16 59 1c bf
       0.47626606 -0.053863645 -0.004519982 -0.61073434
000180 70 30 f5 33 d1 b7 bd be d8 c8 0b 3f c5 45 e4 3d
       1.1417512e-07 -0.37054303 0.5460334 0.1114612
000190 41 72 7a 3c c8 db 39 bd 30 b2 c7 3c 52 1b c6 3e
       0.015286029 -0.045375615 0.024376959 0.3869272
0001a0 41 ec 9e 3c 64 d5 8f bd cc f5 14 3c 3b e0 88 3c
       0.019399764 -0.07023123 0.009091806 0.016708484
0001b0 13 28 b2 bd 66 03 28 3f 90 e1 a3 be 12 ca 4e be
       -0.0869905 0.65630186 -0.32008028 -0.20194271
0001c0 4c 8e 1e be c7 c3 6f 3c 02 91 83 3b d9 7a e7 3d
       -0.1548397 0.014634079 0.004015089 0.11302728
0001d0 59 22 18 3d 1c 82 31 3e 2c 1e 61 bd 68 2b a2 bc
       0.03714213 0.17334789 -0.054960415 -0.019796088
0001e0 1f a1 10 be 63 25 1b bd 42 67 14 bf 04 d2 2d 3d
       -0.14123963 -0.03787745 -0.5797006 0.042436615
0001f0 fd d2 30 3e 6e 6f 60 bd 8e 33 e9 bd 58 91 c6 3d
       0.17267986 -0.054793768 -0.113867864 0.09695691
000200 df 7a 2d be 73 a0 9b be 9e b4 81 bb 01 bf 4d be
       -0.16941403 -0.3039585 -0.003958299 -0.20092393
000210 4d 8c 8a bd 8b 71 2d be 41 81 1e bd 55 fd 94 3e
       -0.067650415 -0.16937844 -0.038697485 0.29099527
000220 35 bf b1 bd 7d 35 56 be 3c 83 e6 bc 70 d0 e2 bc
       -0.08679048 -0.20918842 -0.02813875 -0.027687281
000230 0f 42 25 3d 50 95 c3 be 22 70 15 bd 76 84 4e bd
       0.0403462 -0.38199854 -0.03648389 -0.050419293
000240 36 45 f8 bc 30 e6 bb 3b ed a3 aa bc 88 98 09 3f
       -0.03030644 0.0057342276 -0.020830119 0.5374837
000250 01 1c d9 3e 57 1a cc 3b 5f df 8a bd 58 66 ca 3e
       0.42404178 0.006228726 -0.06780886 0.39531207
000260 b4 71 b5 3e dc a0 0c bd cd ad 1d 3c 37 b6 ff 3e
       0.3543831 -0.034333095 0.009623957 0.49943706
000270 49 02 15 3d 17 32 94 be 53 64 e8 bd 30 47 aa 3d
       0.036379132 -0.28944466 -0.1134726 0.08314359
000280 1b d8 80 bd 1b ad f0 3d e2 6a 9f 3c 15 15 d2 bb
       -0.06291219 0.11751767 0.019460145 -0.0064112046
000290 4c ec af bc 86 01 b5 be b1 28 0d bf 95 4e 37 3d
       -0.02147498 -0.35352725 -0.55140215 0.044752676
0002a0 48 e6 a4 bd 39 2d 1b bc 00 ed c7 3e f3 ee a1 3d
       -0.08051735 -0.009471231 0.39048004 0.07906904
0002b0 0e 2b d3 3d 83 a9 9e be f7 39 81 be dc 74 96 bc
       0.103109464 -0.30988702 -0.25239536 -0.01836627
0002c0 1e 91 07 be 67 82 5c 3d 43 94 d6 3e 6e a4 91 3e
       -0.13238952 0.0538353 0.4190999 0.28445762
0002d0 0d 3e 03 3f 2a af 4e 3e e8 94 b7 3e 9f 88 45 be
       0.51266557 0.20184007 0.35855794 -0.19290398
0002e0 c5 b6 98 bd 5e f2 cb 38 18 aa 91 be 57 b9 9a 3e
       -0.074567355 9.724939e-05 -0.28450084 0.30219528
0002f0 c7 17 c1 bc b3 f5 0c 3c 4a 60 1d 3d 6b f4 41 be
       -0.023570908 0.008603501 0.038421907 -0.18940894
000300 8d 19 5e be e0 74 86 bc 46 85 83 3e a4 0e 33 3e
       -0.21689434 -0.016413152 0.25687617 0.17486054
000310 e5 88 d0 3d ca 29 07 3e 44 37 e7 bd e0 c2 09 be
       0.101823606 0.13199535 -0.11289838 -0.13453245
000320 46 9c 83 3e 90 77 a9 bc 5b 17 ba 3e f4 d9 c1 3d
       0.25705165 -0.020686895 0.36345944 0.094653994
000330 06 e6 b1 3e 09 a8 16 bc e1 83 2f 3d f2 59 3c 3c
       0.34745806 -0.009195336 0.04285038 0.011496054
000340 46 fe a5 bd 09 64 8f bd ba a7 e5 be 95 b6 6f be
       -0.081051394 -0.07001502 -0.44854528 -0.23409493
000350 ad 5e 30 be 2b b7 83 be 5e e7 33 bf 30 b3 42 3d
       -0.17223616 -0.25725684 -0.70274913 0.047534168
000360 6c 2f c8 bd 48 0a 53 be 5c 15 0b 3e da c8 0d be
       -0.0977467 -0.2060939 0.13582367 -0.1384615
000370 e2 01 e7 3b b2 94 dd 3c 3b 7c 23 3c 29 5f 59 3e
       0.007049785 0.027048443 0.009978349 0.21227707
000380 cc fa 3e be 5b 21 05 be ce 93 05 be 6d fc 05 3f
       -0.18650359 -0.13001005 -0.13044664 0.52338296
000390 95 10 f8 3e 06 10 b2 be ae b0 0e 3e 60 8d 9e bc
       0.4845015 -0.3477785 0.13934585 -0.019354522
0003a0 28 44 0f bd 66 3f 52 bd 24 4a bb 3d 7c 46 2d 3e
       -0.03497711 -0.051329993 0.091450006 0.16921419
0003b0 fc 44 a6 3d 27 cd fb bc 49 8e e2 3d f6 12 87 3e
       0.081186265 -0.030737473 0.11062295 0.26381654
0003c0 67 b9 34 bc 3d c4 0f bc 03 ec 8e 3e 2a c1 65 be
       -0.0110305315 -0.008774814 0.27914438 -0.22436967
0003d0 d6 89 cf be 50 bc af 3c 2f c1 92 be 13 bd a0 bd
       -0.40534848 0.0214521 -0.28663012 -0.07848563
0003e0 a4 a6 7a bd 88 38 04 3f 9f e7 d2 3e 11 d3 b2 be
       -0.061194077 0.5164876 0.41192338 -0.34926656
0003f0 23 10 07 3e e2 43 eb 3d 98 a9 8e bd ea ee c3 bc
       0.1318975 0.11487557 -0.06965941 -0.023917634

linear2.bias f4 [3]
000000 99 e5 9d 3e 37 bd 72 3c 1e 6b bb bd
       0.30839232 0.01481562 -0.0915129
